2024-02-07 19:51:38,523 - test - INFO - KdModel(
  (convs): ModuleList(
    (0): MetaLayer(
      edge_model=EdgeConvLayer(
      (edge_mlp): Sequential(
        (0): Linear(in_features=2561, out_features=16, bias=True)
        (1): ReLU()
        (2): Linear(in_features=16, out_features=16, bias=True)
      )
    ),
      node_model=GATConv(1280, 16, heads=1),
      global_model=None
    )
    (1): MetaLayer(
      edge_model=EdgeConvLayer(
      (edge_mlp): Sequential(
        (0): Linear(in_features=48, out_features=16, bias=True)
        (1): ReLU()
        (2): Linear(in_features=16, out_features=16, bias=True)
      )
    ),
      node_model=GATConv(16, 16, heads=1),
      global_model=None
    )
    (2): MetaLayer(
      edge_model=EdgeConvLayer(
      (edge_mlp): Sequential(
        (0): Linear(in_features=48, out_features=16, bias=True)
        (1): ReLU()
        (2): Linear(in_features=16, out_features=16, bias=True)
      )
    ),
      node_model=GATConv(16, 16, heads=1),
      global_model=None
    )
    (3): MetaLayer(
      edge_model=EdgeConvLayer(
      (edge_mlp): Sequential(
        (0): Linear(in_features=48, out_features=16, bias=True)
        (1): ReLU()
        (2): Linear(in_features=16, out_features=16, bias=True)
      )
    ),
      node_model=GATConv(16, 16, heads=1),
      global_model=None
    )
  )
  (linear_layer_nodes): ModuleList(
    (0): Linear(in_features=16, out_features=16, bias=True)
    (1): Linear(in_features=16, out_features=16, bias=True)
    (2): Linear(in_features=16, out_features=16, bias=True)
  )
  (linear_layer_edges): ModuleList(
    (0): Linear(in_features=16, out_features=16, bias=True)
    (1): Linear(in_features=16, out_features=16, bias=True)
    (2): Linear(in_features=16, out_features=16, bias=True)
  )
  (batchnorms): ModuleList(
    (0): BatchNorm(16)
    (1): BatchNorm(16)
    (2): BatchNorm(16)
  )
  (mlp): Sequential(
    (0): Linear(in_features=16, out_features=16, bias=True)
    (1): ReLU()
    (2): Linear(in_features=16, out_features=8, bias=True)
    (3): ReLU()
    (4): Linear(in_features=8, out_features=1, bias=True)
  )
)
Trainable parameters: 69105
2024-02-07 19:51:38,534 - test - INFO - number - predicted - target - loss - mean_squared_relative_mse
2024-02-07 19:51:38,546 - test - INFO - 1 - 0.17409802973270416 - -32.23619079589844 - 1050.4268798828125 - 1.0108306407928467
