2024-09-29 18:07:39,735 - train - INFO - KdDataset()
2024-09-29 18:07:39,740 - train - INFO - KdDataset()
2024-09-29 18:07:39,797 - train - INFO - KdModel_PoolEdges(
  (convs): ModuleList(
    (0): MetaLayer(
      edge_model=EdgeConvLayer(
      (edge_mlp): Sequential(
        (0): Linear(in_features=2561, out_features=64, bias=True)
        (1): ReLU()
        (2): Linear(in_features=64, out_features=64, bias=True)
      )
    ),
      node_model=GATConv(1280, 64, heads=1),
      global_model=None
    )
    (1): MetaLayer(
      edge_model=EdgeConvLayer(
      (edge_mlp): Sequential(
        (0): Linear(in_features=192, out_features=64, bias=True)
        (1): ReLU()
        (2): Linear(in_features=64, out_features=64, bias=True)
      )
    ),
      node_model=GATConv(64, 64, heads=1),
      global_model=None
    )
    (2): MetaLayer(
      edge_model=EdgeConvLayer(
      (edge_mlp): Sequential(
        (0): Linear(in_features=192, out_features=64, bias=True)
        (1): ReLU()
        (2): Linear(in_features=64, out_features=64, bias=True)
      )
    ),
      node_model=GATConv(64, 64, heads=1),
      global_model=None
    )
  )
  (batchnorms): ModuleList(
    (0): BatchNorm(64)
    (1): BatchNorm(64)
  )
  (mlp): Sequential(
    (0): Linear(in_features=64, out_features=64, bias=True)
    (1): ReLU()
    (2): Linear(in_features=64, out_features=32, bias=True)
    (3): ReLU()
    (4): Linear(in_features=32, out_features=1, bias=True)
  )
)
Trainable parameters: 310849
2024-09-29 18:08:40,438 - train - INFO - KdDataset()
2024-09-29 18:08:40,443 - train - INFO - KdDataset()
2024-09-29 18:08:40,492 - train - INFO - KdModel_PoolEdges(
  (convs): ModuleList(
    (0): MetaLayer(
      edge_model=EdgeConvLayer(
      (edge_mlp): Sequential(
        (0): Linear(in_features=2561, out_features=64, bias=True)
        (1): ReLU()
        (2): Linear(in_features=64, out_features=64, bias=True)
      )
    ),
      node_model=GATConv(1280, 64, heads=1),
      global_model=None
    )
    (1): MetaLayer(
      edge_model=EdgeConvLayer(
      (edge_mlp): Sequential(
        (0): Linear(in_features=192, out_features=64, bias=True)
        (1): ReLU()
        (2): Linear(in_features=64, out_features=64, bias=True)
      )
    ),
      node_model=GATConv(64, 64, heads=1),
      global_model=None
    )
    (2): MetaLayer(
      edge_model=EdgeConvLayer(
      (edge_mlp): Sequential(
        (0): Linear(in_features=192, out_features=64, bias=True)
        (1): ReLU()
        (2): Linear(in_features=64, out_features=64, bias=True)
      )
    ),
      node_model=GATConv(64, 64, heads=1),
      global_model=None
    )
  )
  (batchnorms): ModuleList(
    (0): BatchNorm(64)
    (1): BatchNorm(64)
  )
  (mlp): Sequential(
    (0): Linear(in_features=64, out_features=64, bias=True)
    (1): ReLU()
    (2): Linear(in_features=64, out_features=32, bias=True)
    (3): ReLU()
    (4): Linear(in_features=32, out_features=1, bias=True)
  )
)
Trainable parameters: 310849
2024-09-29 18:10:18,545 - train - INFO - KdDataset()
2024-09-29 18:10:18,551 - train - INFO - KdDataset()
2024-09-29 18:10:18,609 - train - INFO - KdModel_PoolEdges(
  (convs): ModuleList(
    (0): MetaLayer(
      edge_model=EdgeConvLayer(
      (edge_mlp): Sequential(
        (0): Linear(in_features=2561, out_features=64, bias=True)
        (1): ReLU()
        (2): Linear(in_features=64, out_features=64, bias=True)
      )
    ),
      node_model=GATConv(1280, 64, heads=1),
      global_model=None
    )
    (1): MetaLayer(
      edge_model=EdgeConvLayer(
      (edge_mlp): Sequential(
        (0): Linear(in_features=192, out_features=64, bias=True)
        (1): ReLU()
        (2): Linear(in_features=64, out_features=64, bias=True)
      )
    ),
      node_model=GATConv(64, 64, heads=1),
      global_model=None
    )
    (2): MetaLayer(
      edge_model=EdgeConvLayer(
      (edge_mlp): Sequential(
        (0): Linear(in_features=192, out_features=64, bias=True)
        (1): ReLU()
        (2): Linear(in_features=64, out_features=64, bias=True)
      )
    ),
      node_model=GATConv(64, 64, heads=1),
      global_model=None
    )
  )
  (batchnorms): ModuleList(
    (0): BatchNorm(64)
    (1): BatchNorm(64)
  )
  (mlp): Sequential(
    (0): Linear(in_features=64, out_features=64, bias=True)
    (1): ReLU()
    (2): Linear(in_features=64, out_features=32, bias=True)
    (3): ReLU()
    (4): Linear(in_features=32, out_features=1, bias=True)
  )
)
Trainable parameters: 310849
2024-09-29 18:10:50,694 - train - INFO - KdDataset()
2024-09-29 18:10:50,696 - train - INFO - KdDataset()
2024-09-29 18:10:50,734 - train - INFO - KdModel_PoolEdges(
  (convs): ModuleList(
    (0): MetaLayer(
      edge_model=EdgeConvLayer(
      (edge_mlp): Sequential(
        (0): Linear(in_features=2561, out_features=64, bias=True)
        (1): ReLU()
        (2): Linear(in_features=64, out_features=64, bias=True)
      )
    ),
      node_model=GATConv(1280, 64, heads=1),
      global_model=None
    )
    (1): MetaLayer(
      edge_model=EdgeConvLayer(
      (edge_mlp): Sequential(
        (0): Linear(in_features=192, out_features=64, bias=True)
        (1): ReLU()
        (2): Linear(in_features=64, out_features=64, bias=True)
      )
    ),
      node_model=GATConv(64, 64, heads=1),
      global_model=None
    )
    (2): MetaLayer(
      edge_model=EdgeConvLayer(
      (edge_mlp): Sequential(
        (0): Linear(in_features=192, out_features=64, bias=True)
        (1): ReLU()
        (2): Linear(in_features=64, out_features=64, bias=True)
      )
    ),
      node_model=GATConv(64, 64, heads=1),
      global_model=None
    )
  )
  (batchnorms): ModuleList(
    (0): BatchNorm(64)
    (1): BatchNorm(64)
  )
  (mlp): Sequential(
    (0): Linear(in_features=64, out_features=64, bias=True)
    (1): ReLU()
    (2): Linear(in_features=64, out_features=32, bias=True)
    (3): ReLU()
    (4): Linear(in_features=32, out_features=1, bias=True)
  )
)
Trainable parameters: 310849
2024-09-29 18:11:17,918 - train - INFO - KdDataset()
2024-09-29 18:11:17,922 - train - INFO - KdDataset()
2024-09-29 18:11:17,966 - train - INFO - KdModel_PoolEdges(
  (convs): ModuleList(
    (0): MetaLayer(
      edge_model=EdgeConvLayer(
      (edge_mlp): Sequential(
        (0): Linear(in_features=2561, out_features=64, bias=True)
        (1): ReLU()
        (2): Linear(in_features=64, out_features=64, bias=True)
      )
    ),
      node_model=GATConv(1280, 64, heads=1),
      global_model=None
    )
    (1): MetaLayer(
      edge_model=EdgeConvLayer(
      (edge_mlp): Sequential(
        (0): Linear(in_features=192, out_features=64, bias=True)
        (1): ReLU()
        (2): Linear(in_features=64, out_features=64, bias=True)
      )
    ),
      node_model=GATConv(64, 64, heads=1),
      global_model=None
    )
    (2): MetaLayer(
      edge_model=EdgeConvLayer(
      (edge_mlp): Sequential(
        (0): Linear(in_features=192, out_features=64, bias=True)
        (1): ReLU()
        (2): Linear(in_features=64, out_features=64, bias=True)
      )
    ),
      node_model=GATConv(64, 64, heads=1),
      global_model=None
    )
  )
  (batchnorms): ModuleList(
    (0): BatchNorm(64)
    (1): BatchNorm(64)
  )
  (mlp): Sequential(
    (0): Linear(in_features=64, out_features=64, bias=True)
    (1): ReLU()
    (2): Linear(in_features=64, out_features=32, bias=True)
    (3): ReLU()
    (4): Linear(in_features=32, out_features=1, bias=True)
  )
)
Trainable parameters: 310849
2024-09-29 18:11:20,553 - KDNN.trainer.trainer - INFO -     epoch          : 1
2024-09-29 18:11:20,555 - KDNN.trainer.trainer - INFO -     lr             : 0.001
2024-09-29 18:11:20,557 - KDNN.trainer.trainer - INFO -     loss           : 395.06573486328125
2024-09-29 18:11:20,559 - KDNN.trainer.trainer - INFO -     mean_squared_relative_mse: 1.0167701244354248
…
2024-09-29 18:11:20,757 - KDNN.trainer.trainer - INFO -     val_mean_squared_relative_mse: 1.01315438747406
2024-09-29 18:11:20,865 - KDNN.trainer.trainer - INFO - Saving checkpoint: experiments/example_run/checkpoint/checkpoint-epoch1.pth ...
2024-09-29 18:11:20,959 - KDNN.trainer.trainer - INFO - Saving current best: model_best.pth ...
2024-09-29 18:11:46,411 - train - INFO - KdDataset()
2024-09-29 18:11:46,414 - train - INFO - KdDataset()
2024-09-29 18:11:46,460 - train - INFO - KdModel_PoolEdges(
  (convs): ModuleList(
    (0): MetaLayer(
      edge_model=EdgeConvLayer(
      (edge_mlp): Sequential(
        (0): Linear(in_features=2561, out_features=64, bias=True)
        (1): ReLU()
        (2): Linear(in_features=64, out_features=64, bias=True)
      )
    ),
      node_model=GATConv(1280, 64, heads=1),
      global_model=None
    )
    (1): MetaLayer(
      edge_model=EdgeConvLayer(
      (edge_mlp): Sequential(
        (0): Linear(in_features=192, out_features=64, bias=True)
        (1): ReLU()
        (2): Linear(in_features=64, out_features=64, bias=True)
      )
    ),
      node_model=GATConv(64, 64, heads=1),
      global_model=None
    )
    (2): MetaLayer(
      edge_model=EdgeConvLayer(
      (edge_mlp): Sequential(
        (0): Linear(in_features=192, out_features=64, bias=True)
        (1): ReLU()
        (2): Linear(in_features=64, out_features=64, bias=True)
      )
    ),
      node_model=GATConv(64, 64, heads=1),
      global_model=None
    )
  )
  (batchnorms): ModuleList(
    (0): BatchNorm(64)
    (1): BatchNorm(64)
  )
  (mlp): Sequential(
    (0): Linear(in_features=64, out_features=64, bias=True)
    (1): ReLU()
    (2): Linear(in_features=64, out_features=32, bias=True)
    (3): ReLU()
    (4): Linear(in_features=32, out_features=1, bias=True)
  )
)
Trainable parameters: 310849
2024-09-29 18:11:48,784 - KDNN.trainer.trainer - INFO -     epoch          : 1
2024-09-29 18:11:48,786 - KDNN.trainer.trainer - INFO -     lr             : 0.001
2024-09-29 18:11:48,787 - KDNN.trainer.trainer - INFO -     loss           : 385.90155029296875
2024-09-29 18:11:48,789 - KDNN.trainer.trainer - INFO -     mean_squared_relative_mse: 0.993184506893158
…
